results/dl/best_gnn_discharge_model.pt (torch, 538465 bytes, 10 tensors)

conv1.weight f4 [3, 4, 128]
-0.07930434 -0.14220291 0.029731333 0.15799218 0.19725561 -0.0007426441 -0.095909074 -0.08360143
0.13842818 -0.19660401 0.14820084 -0.0129214525 -0.0037802458 -0.20747328 0.065978736 -0.08052017
0.04440692 0.122844934 0.0115186125 -0.026673093 0.07350469 0.14905506 0.053621292 -0.19250078
0.039830893 -0.04785344 -0.1631253 0.07171875 0.07056755 -0.15431736 -0.009374335 0.16027907
-0.07031889 -0.1643655 -0.21100587 -0.12468252 0.07390371 -0.08773257 -0.1705149 0.19168177
-0.12800746 -0.0519004 -0.13345456 0.16815907 0.0119905025 0.001706034 -0.011623725 0.12171754
0.030803904 -0.11652717 -0.08016388 -0.19892292 -0.018269762 0.19270915 -0.12978354 -0.1007063
0.036712646 -0.11592719 -0.033827305 -0.06732908 0.029626653 0.052105814 0.0643017 0.17773539
-0.0910783 0.005361229 0.13881657 -0.06872147 0.12788215 -0.18564312 -0.129444 0.08888355
-0.013877779 -0.12235284 0.049407482 -0.08451334 0.078502595 -0.032897443 -0.15506467 -0.023623154
-0.2130222 -0.10023454 -0.0847432 -0.016109362 0.16507205 0.0996106 -0.2117362 0.1265468
-0.08088292 0.054169655 0.060574085 0.16844955 -0.0040253103 0.04434377 -0.20100728 0.20205912
0.11463034 -0.017108187 -0.1572131 -0.07873224 0.08961269 -0.04949975 0.1044139 0.003008306
0.1339601 -0.020991758 -0.011642441 -0.09099824 0.058835536 0.18982908 -0.105668984 0.15770656
0.13240689 -0.05923544 -0.14371707 0.04199633 -0.008183181 0.15079132 -0.14796728 0.19837889
0.14539942 0.20151639 0.12262985 -0.06961909 -0.0076919496 0.006901279 0.20826212 -0.20297344
-0.1437481 -0.04144436 0.17875195 0.007651314 0.09348625 -0.17833126 -0.11402135 -0.0010633022
-0.11410805 0.15089524 -0.10145794 0.17538443 0.03977415 0.08549169 -0.03307785 -0.012384236
-0.029467046 -0.0144161135 0.020360231 -0.040221766 0.06959793 -0.0037267804 -0.11155928 0.107602656
-0.100224905 -0.1693885 0.088020355 0.19599473 0.07844412 -0.12904182 -0.07144217 -0.042286724
-0.008434638 0.0018798113 -0.045031607 0.13390794 0.08178133 0.14787835 -0.031841964 0.049386054
-0.13143516 -0.077418834 0.100545466 0.09407568 0.120385945 0.020405889 -0.054683164 -0.11899878
0.00014860928 0.043866307 0.062475115 0.016623423 0.1163401 0.17497599 0.015374482 0.0019787252
-0.18603492 0.20514885 0.15639824 0.048015267 0.032096103 0.13652745 -0.016677752 -0.17613886
0.21010324 0.16692263 0.0496732 -0.047819987 -0.006752059 -0.039576262 -0.05277492 0.115523756
-0.13672784 -0.18555185 0.07863256 0.1545667 0.17400634 0.09562451 0.19974312 -0.21276669
-0.16966228 0.16008723 0.061041772 -0.013435036 0.060159177 -0.11088777 0.09639424 -0.12174297
-0.050985456 -0.045610696 0.07274416 -0.20457616 -0.0910908 0.18110052 0.064617515 -0.2034541
0.066676676 0.017678216 -0.17850563 -0.14353898 0.01433371 -0.004920751 -0.048429295 -0.053894594
0.19173127 -0.12424027 -0.2113199 0.10717276 0.18479821 -0.1982996 -0.16785502 -0.20072931
0.0699687 0.007417038 -0.1089362 0.16600105 0.15848166 -0.15098067 -0.040129095 -0.17569989
0.18812653 0.10329732 -0.12518148 0.17810342 0.15281528 -0.033990085 0.005076766 -0.060396135
00000000: 506a a2bd a49d 11be 208f f33c b4c8 213e
00000010: 60fd 493e 00ae 42ba fa6b c4bd 3a37 abbd
00000020: 1ec0 0d3e 9052 49be f6c1 173e 80b4 53bc
00000030: 00be 77bb e073 54be dc1f 873d c2e7 a4bd
00000040: 08e4 353d 2096 fb3d 90b8 3c3c 8881 dabc
00000050: a089 963d e4a1 183e 00a2 5b3d ed1e 45be
00000060: b825 233d f801 44bd 520a 27be 48e1 923d
00000070: b885 903d 5f05 1ebe d096 19bc 3220 243e
00000080: 5a03 90bd 6e4f 28be ec11 58be 8d59 ffbd
00000090: d45a 973d 22ad b3bd 759b 2ebe 3a48 443e
000000a0: 6314 03be 8495 54bd 50a8 08be e431 2c3e
000000b0: d073 443c 009d df3a 7071 3ebc 0c47 f93d
000000c0: 7858 fc3c cca5 eebd f62c a4bd 73b2 4bbe
000000d0: 78aa 95bc 8c55 453e fae5 04be 1b3f cebd
000000e0: 0060 163d 3c6b edbd 808e 0abd d4e3 89bd
000000f0: 98b3 f23c e86c 553d 9cb0 833d 4400 363e
00000100: 4287 babd 40ad af3b ee25 0e3e d8bd 8cbd
00000110: 8af3 023e 3b19 3ebe f88c 04be 9408 b63d
00000120: a05f 63bc 2094 fabd 805f 4a3d 5415 adbd
00000130: f8c5 a03d 78bf 06bd 46c9 1ebe 5885 c1bc
00000140: 7e22 5abe c447 cdbd d88d adbd c8f7 83bc
00000150: a608 293e a400 cc3d 60d1 58be 7c95 013e
00000160: f2a5 a5bd 00e1 5d3d 881c 783d 0a7e 2c3e
00000170: c0e6 83bb d0a1 353d dad4 4dbe 96e8 4e3e
00000180: 50c3 ea3d 7826 8cbc 79fc 20be 5e3e a1bd
00000190: dc86 b73d 40c0 4abd f4d6 d53d 0027 453b
000001a0: d62c 093e e8f6 abbc f0bf 3ebc 495d babd
000001b0: 88fd 703d 8e62 423e fb68 d8bd d47d 213e
000001c0: ac95 073e dca0 72bd 912a 13be 5804 2c3d
000001d0: c012 06bc 0a69 1a3e bc84 17be d623 4b3e
000001e0: 96e3 143e 505a 4e3e 5c25 fb3d 7494 8ebd
000001f0: c00c fcbb 2024 e23b aa42 553e 45d8 4fbe
00000200: b432 13be 90c1 29bd c00a 373e e0b7 fa3b
00000210: b875 bf3d 789c 36be 0784 e9bd 805e 8bba
00000220: 7bb1 e9bd 4884 1a3e 2ec9 cfbd fa97 333e
00000230: 38ea 223d 4416 af3d a47c 07bd 40e7 4abc
00000240: e064 f1bc 9031 6cbc 80ca a63c 94bf 24bd
00000250: 5c89 8e3d 003d 74bb 3179 e4bd c85e dc3d
00000260: b742 cdbd 2e74 2dbe 0444 b43d d8b2 483e
00000270: 50a7 a03d 8a23 04be 4650 92bd d834 2dbd
00000280: 7031 0abc 0064 f63a 1073 38bd 2a1f 093e
00000290: f87c a73d 6c6d 173e b86c 02bd 0849 4a3d
000002a0: f096 06be c48d 9ebd c8ea cd3d c0aa c03d
000002b0: e88c f63d 402a a73c 74fb 5fbd a2b5 f3bd
000002c0: 00d4 1b39 28ad 333d e8e5 7f3d d82d 883c
000002d0: b843 ee3d e82c 333e 40e5 7b3c 80ad 013b
000002e0: f07f 3ebe 8a12 523e dc26 203e a8ab 443d
000002f0: 3477 033d dacd 0b3e c89f 88bc bf5d 34be
00000300: 4e25 573e c4ed 2a3e 2076 4b3d e4de 43bd
00000310: 6040 ddbb b81a 22bd 842a 58bd b897 ec3d
00000320: 6202 0cbe 4e01 3ebe 1c0a a13d bc46 1e3e
00000330: b82e 323e c8d6 c33d 7689 4c3e 83df 59be
00000340: f3bb 2dbe e8ed 233e f006 7a3d a01e 5cbc
00000350: 7869 763d 2119 e3bd 586a c53d 6154 f9bd
00000360: 20d6 50bd 48d2 3abd e4fa 943d 6a7c 51be
00000370: d08d babd 6a72 393e 3056 843d 4656 50be
00000380: c88d 883d e8d1 903c 2eca 36be e2fb 12be
00000390: f0d7 6a3c 403e a1bb cc5d 46bd 94c0 5cbd
000003a0: 3455 443e af71 febd 3e64 58be 647d db3d
000003b0: be3b 3d3e 0d0f 4bbe 30e2 2bbe fc8b 4dbe
000003c0: c04b 8f3d a00a f33b f119 dfbd 2efc 293e
000003d0: 0449 223e ad9a 1abe 685e 24bd acea 33be
000003e0: 3ea4 403e 8c8d d33d 932f 00be be60 363e
000003f0: 9c7b 1c3e 3039 0bbd 005b a63b f061 77bd

conv1.root f4 [4, 128]
-0.025754279 0.14256495 -0.10411948 0.22353661 -0.078389734 0.07854345 -0.07854226 -0.14371613
0.19977185 0.039844222 -0.023273347 -0.13422409 0.20836483 0.0934664 -0.12273103 0.07499608
0.116401985 -0.075013906 -0.19108185 0.18914655 0.02065141 0.13487531 -0.1084663 0.2294152
-0.023986705 0.082550004 0.0074616587 -0.14596115 -0.030497288 0.08957801 0.1099454 0.13165842
0.0673381 -0.024267955 -0.0003279969 0.043089736 -0.03077162 0.0067191315 0.00025357853 -0.10114375
0.1355426 -0.098346725 -0.07111416 0.20027742 0.02169165 0.14752066 0.12725867 -0.10586506
-0.0241086 -0.025055178 0.17236944 -0.05692901 -0.042352557 -0.06563613 -0.03735714 -0.07718226
0.20995834 0.13720436 -0.106532104 -0.051824536 0.07886314 0.08797058 -0.02302811 -0.077908695
-0.0055382666 -0.20333692 0.15109842 0.02094372 0.10224766 0.13023794 -0.052181114 0.027787974
-0.018180525 0.22496712 0.04335659 0.11834678 0.21829857 -0.03679368 0.108468525 -0.109825626
0.11471876 0.20638305 0.17880939 0.22283208 -0.021446494 0.1074838 -0.07527238 -0.06325102
0.11366201 -0.0059744767 0.20635755 0.23480286 -0.11961328 0.25579473 -0.047057785 -0.12374019
0.21209823 0.047955994 0.34427217 0.035604667 0.114875354 -0.04397491 0.19252305 -0.108111076
-0.080281556 0.050851166 0.17153658 -0.016953621 -0.09069169 -0.09793873 -0.045683954 0.008339603
-0.0064559905 0.112640314 -0.011629411 -0.0358067 -0.08800806 0.058669947 0.004627077 -0.059459943
0.035581753 -0.12891008 -0.06720289 -0.21266602 -0.07961268 0.2039689 0.22102602 0.064120375
0.13302144 0.06824893 0.16604073 0.27449244 0.037373435 -0.045937266 -0.06302112 0.28092134
0.10567745 -0.23255646 -0.14251877 0.0906193 0.026364414 -0.22307138 0.22524633 -0.47059423
0.30150363 0.2514715 0.12249604 0.030149803 -0.34676948 0.09656994 0.100664124 0.29362065
0.23558891 -0.27989656 -0.33898252 -0.014812135 -0.38342208 -0.4185659 0.10086201 0.07762833
0.17802879 -0.30041543 -0.3461037 -0.113560215 0.060299713 0.1804685 -0.24544714 0.21484537
0.055475697 -0.36466178 -0.41027778 0.010864046 0.37686858 0.23030104 0.12133892 -0.26444632
0.25343123 -0.23463309 0.20699194 0.2984251 0.09058863 -0.0292017 0.0752251 -0.090739526
-0.06508 0.16394068 0.13098502 0.10882803 0.07651664 0.12330123 -0.13868126 -0.002164274
-0.4097959 0.15275128 0.19937482 0.1857696 0.048346087 0.25857607 -0.49724755 0.08747854
-0.25129348 0.0045698965 0.08279745 -0.015501245 0.007299819 0.075587645 -0.21720727 -0.046432223
0.043326154 0.17820461 -0.45432913 0.005035108 0.23551875 0.1454056 0.29546577 0.16322282
0.093174785 -0.07469217 0.02553997 0.06810934 -0.15518908 0.22051957 -0.0864156 0.23405911
0.06380706 0.020272704 0.055805698 0.11579922 0.23471649 0.2716199 0.2639779 0.16238311
0.22457209 0.09844608 0.26822326 -0.430762 0.15286769 -0.14938764 0.07827306 -0.46519616
-0.35941815 -0.31760663 -0.42732432 0.30797687 0.17115209 0.09237556 0.13926585 -0.21877879
0.032953747 0.2135192 -0.07457168 0.22517125 0.065590195 0.28485495 0.024364168 -0.2321598
00000000: a3fa d2bc 8cfc 113e 983c d5bd c8e6 643e
00000010: cc8a a0bd 63db a03d c4da a0bd 522a 13be
00000020: fe90 4c3e b233 233d bfa7 bebc 0a72 09be
00000030: 975d 553e 506b bf3d 685a fbbd 8b97 993d
00000040: 2a64 ee3d e4a0 99bd f6aa 43be a2af 413e
00000050: 252d a93c c11c 0a3e 9423 debd d1eb 6a3e
00000060: c47f c4bc fa0f a93d ee80 f43b d776 15be
00000070: 73d5 f9bc ad74 b73d 0e2b e13d 77d1 063e
00000080: 8fe8 893d 97cd c6bc 00f7 abb9 dd7e 303d
00000090: c414 fcbc 292c dc3b bcf2 8439 7424 cfbd
000000a0: aecb 0a3e 026a c9bd 4da4 91bd 8615 4d3e
000000b0: b0b2 b13c a80f 173e 1950 023e c8cf d8bd
000000c0: 667f c5bc 8440 cdbc 9d81 303e 652e 69bd
000000d0: e079 2dbd 3c6c 86bd cd03 19bd bc11 9ebd
000000e0: 52ff 563e 4d7f 0c3e 812d dabd f745 54bd
000000f0: ff82 a13d eb29 b43d 72a5 bcbc 988e 9fbd
00000100: 597a b5bb 8e37 50be 8bb9 1a3e 2a92 ab3c
00000110: 3967 d13d 185d 053e ddbb 55bd 9ba3 e33c
00000120: 53ef 94bc c85d 663e ae96 313d cc5f f23d
00000130: a989 5f3e f8b4 16bd bf24 de3d 42ec e0bd
00000140: abf1 ea3d 1456 533e cf19 373e 182e 643e
00000150: 8fb0 afbc 7720 dc3d 6828 9abd c089 81bd
00000160: a1c7 e83d 8bc5 c3bb 654f 533e 2970 703e
00000170: cff7 f4bd 87f7 823e aabf 40bd 7f6b fdbd
00000180: 4730 593e 816d 443d 7144 b03e 33d6 113d
00000190: c543 eb3d 091f 34bd c324 453e 5769 ddbd
000001a0: a86a a4bd 5049 503d 49a7 2f3e 52e2 8abc
000001b0: 91bc b9bd 1a94 c8bd 191f 3bbd d5a2 083c
000001c0: c68c d3bb f7af e63d 4989 3ebc 0caa 12bd
000001d0: 923d b4bd e64f 703d bc9e 973b 458c 73bd
000001e0: 2cbe 113d 0101 04be aba1 89bd 1fc5 59be
000001f0: f90b a3bd 39dd 503e a554 623e 8b51 833d
00000200: c636 083e 18c6 8b3d 9506 2a3e 468a 8c3e
00000210: e314 193d b728 3cbd 3811 81bd ecd4 8f3e
00000220: 6b6d d83d 4823 6ebe 71f0 11be 9d96 b93d
00000230: 2ffa d73c d36c 64be f9a6 663e baf1 f0be
00000240: af5e 9a3e dfc0 803e 34df fa3d b8fc f63c
00000250: c58b b1be 76c6 c53d fe28 ce3d 7255 963e
00000260: 383e 713e 9a4e 8fbe 1e8f adbe 99ae 72bc
00000270: e64f c4be 454e d6be be90 ce3d 9afb 9e3d
00000280: 2e4d 363e 0dd0 99be 8134 b1be 4292 e8bd
00000290: d5fc 763d bccc 383e 7f56 7bbe 6d00 5c3e
000002a0: 7c3a 633d f3b4 babe ee0f d2be 1dff 313c
000002b0: ebf4 c03e 09d4 6b3e 8a80 f83d 8265 87be
000002c0: bdc1 813e a843 70be b2f5 533e 2dcb 983e
000002d0: 8886 b93d 6738 efbc 9e0f 9a3d a5d5 b9bd
000002e0: aa48 85bd 11e0 273e f020 063e 3be1 de3d
000002f0: c2b4 9c3d 5b85 fc3d 7602 0ebe 7ed6 0dbb
00000300: c5d0 d1be d56a 1c3e ea28 4c3e 633a 3e3e
00000310: 8c06 463d 1564 843e 3b97 febe f327 b33d
00000320: 8aa9 80be 12bf 953b b691 a93d eff8 7dbc
00000330: 5233 ef3b b2cd 9a3d 956b 5ebe b72f 3ebd
00000340: c476 313d 457b 363e d49d e8be 8cfd a43b
00000350: d42b 713e 35e5 143e 4a47 973e e223 273e
00000360: 6cd2 be3d 35f8 98bd 3339 d13c e97c 8b3d
00000370: e3e9 1ebe e2cf 613e a9fa b0bd 31ad 6f3e
00000380: 47ad 823d f112 a63c 8494 643d 2428 ed3d
00000390: 8559 703e c311 8b3e 1c28 873e c247 263e
000003a0: 3af6 653e 199e c93d 8f54 893e d68c dcbe
000003b0: 5989 1c3e 13f9 18be a04d a03d 312e eebe
000003c0: a805 b8be 569d a2be 41ca dabe 25af 9d3e
000003d0: 7e42 2f3e 662f bd3d b59b 0e3e 8c07 60be
000003e0: 82fa 063d c7a4 5a3e 09b9 98bd 4b93 663e
000003f0: 2754 863d 82d8 913e 5d97 c73c 4cbb 6dbe

conv1.bias f4 [128]
-0.11894942 -0.15018746 -0.14944063 -0.019620577 -0.07764881 -0.061384834 0.11626817 0.09883261
-0.10992852 -0.02971726 -0.03370479 -0.037891593 -0.057816904 0.008427977 0.034354392 -0.23889604
-0.041911602 -0.025047563 -0.10119075 -0.061888497 -0.17434154 -0.04481838 -0.05028104 -0.05581784
-0.055365372 0.06494395 -0.103040464 -0.095450915 -0.21892683 -0.0055785025 -0.10589252 -0.09946508
0.10845376 -0.22456823 -0.17084175 -0.09974215 -0.07433673 0.09177447 -0.14801419 0.11993109
-0.08724948 -0.13881487 -0.16471153 -0.13579684 0.026672814 -0.06545026 -0.04690625 0.008369095
0.0552157 -0.1756567 -0.043159697 -0.024790563 -0.09033447 -0.060435213 -0.14553054 -0.1104612
-0.10200526 -0.05732128 -0.025417553 -0.04551646 -0.020690458 -0.10330415 -0.049622018 0.026996806
-0.14507689 0.080895014 -0.09237406 -0.046950348 -0.07041898 -0.00057954877 -0.18810682 -0.0565823
-0.056346025 -0.1251687 -0.024933537 -0.048456747 -0.067571096 0.029453188 -0.07986095 -0.20628078
-0.1246004 -0.07538353 -0.15927583 -0.16908824 -0.026634619 -0.05025009 0.18457247 -0.037432905
-0.10014691 -0.12591903 -0.09423622 0.019774463 -0.16088702 -0.072181776 -0.13484521 0.08537258
-0.042866852 0.094370626 -0.046424948 -0.1186218 0.10013703 0.030510936 -0.1039684 -0.018553464
-0.059179608 -0.05997108 -0.06089676 -0.23139365 0.02031013 -0.11014414 -0.1044694 -0.14608361
-0.04799514 -0.14775951 -0.22035407 -0.002799556 0.024410298 -0.18855298 -0.0984545 -0.09421572
-0.03716573 -0.054197647 -0.08677587 0.0020933829 -0.07081096 -0.07846542 -0.05270902 -0.00026049244
00000000: c19b f3bd beca 19be f706 19be 55bb a0bc
00000010: 5706 9fbd aa6e 7bbd 021e ee3d c068 ca3d
00000020: 3422 e1bd 9c71 f3bc 090e 0abd 3734 1bbd
00000030: 6bd1 6cbd 7f15 0a3c 31b7 0c3d 2aa1 74be
00000040: 80ab 2bbd 8c30 cdbc 193d cfbd cb7e 7dbd
00000050: 9786 32be 7a93 37bd 7ef3 4dbd 3fa1 64bd
00000060: cdc6 62bd 5501 853d e106 d3bd c57b c3bd
00000070: 5b2e 60be dfcb b6bb 2dde d8bd 59b4 cbbd
00000080: 011d de3d 37f5 65be 24f1 2ebe 9d45 ccbd
00000090: db3d 98bd 41f4 bb3d 0891 17be 6e9e f53d
000000a0: dbaf b2bd 7c25 0ebe 24aa 28be 540e 0bbe
000000b0: f280 da3c c90a 86bd c520 40bd 871e 093c
000000c0: dc29 623d 5adf 33be 39c8 30bd 9415 cbbc
000000d0: 4701 b9bd ea8a 77bd f505 15be 7b39 e2bd
000000e0: 22e8 d0bd b8c9 6abd 7938 d0bc 786f 3abd
000000f0: 097f a9bc 2091 d3bd 7540 4bbd 6828 dd3c
00000100: 098f 14be 49ac a53d 9c2e bdbd 024f 40bd
00000110: d437 90bd dcec 17ba 139f 40be d8c2 67bd
00000120: 17cb 66bd 392c 00be 6b41 ccbc 957a 46bd
00000130: b762 8abd d047 f13c 238e a3bd 453b 53be
00000140: 7f2e ffbd ae62 9abd 3419 23be 7825 2dbe
00000150: d830 dabc 0ad3 4dbd 9100 3d3e 3f53 19bd
00000160: d319 cdbd ebf0 00be ebfe c0bd 0efe a13c
00000170: 91bf 24be 0ad4 93bd dd14 0abe d2d7 ae3d
00000180: 2795 2fbd 6345 c13d 1628 3ebd fcef f2bd
00000190: a514 cd3d 12f2 f93c 62ed d4bd 6ffd 97bc
000001a0: 5166 72bd 3ca4 75bd e26e 79bd 75f2 6cbe
000001b0: 6e61 a63c 4093 e1bd 0ef4 d5bd f196 15be
000001c0: 8d96 44bd 454e 17be 7fa4 61be c178 37bb
000001d0: 1bf8 c73c 0814 41be 83a2 c9bd 2cf4 c0bd
000001e0: 183b 18bd 5afe 5dbd 8cb7 b1bd 2331 093b
000001f0: 5605 91bd 7ab2 a0bd 6ae5 57bd b492 88b9

conv2.weight f4 [3, 128, 128]
-0.0588175 -0.08693927 -0.083101526 -0.10654167 0.12120269 0.107133165 0.092225224 -0.11267793
-0.07267432 0.09201051 0.14227276 0.09758653 -0.07408807 0.120541826 -0.1459139 0.09756206
0.057347715 0.10005821 0.11200787 0.019964606 -0.046875767 -0.09622195 -0.057928115 -0.13996825
0.038552865 0.13471936 0.043599322 -0.021309972 -0.030126005 -0.08747513 0.005694717 0.07089469
0.054171145 0.096542224 -0.107066184 -0.04179924 0.08586727 0.14014466 -0.03992048 0.14950387
0.14030866 -0.10662263 0.00071807206 0.113159046 -0.14587761 0.001305744 -0.12704533 -0.018525153
0.1283526 0.117335334 0.1131684 -0.06526227 0.09096143 -0.1018672 0.08043721 -0.12625803
-0.14221118 -0.022991702 -0.13559902 -0.11228155 0.12792139 -0.013211772 -0.014841691 0.0342976
-0.011124358 0.048404947 0.11405392 -0.026916027 0.10463317 -0.022339895 0.09685321 -0.10874531
-0.0021490753 0.14226244 0.12808047 0.022022441 -0.07259283 -0.02480328 -0.102247596 -0.058701895
-0.049129434 -0.010457158 -0.047755443 -0.11412881 0.08554983 -0.008330494 0.13570736 -0.14734444
0.13851528 0.015846357 0.0043597966 -0.048956335 0.016139582 -0.110817954 0.09411867 0.03442751
0.1245905 0.0012170523 -0.008076429 -0.042874187 -0.047041565 0.016645774 0.13949643 -0.07005559
0.095905095 -0.15072405 -0.026843026 -0.15024832 0.065279245 0.016983658 -0.14397174 -0.09614423
0.13536109 -0.027530968 -0.053685613 0.0643456 0.12895496 -0.13133281 0.08192778 -0.01184459
0.022410259 -0.021613076 -0.09098125 -0.10597165 -0.031966217 -0.071032286 -0.116817564 0.043966234
-0.043725066 0.030170918 -0.12886128 0.14658897 0.021903917 0.13091917 -0.07241183 -0.037680678
-0.037416764 -0.055217966 0.0339559 0.14675488 -0.05018626 -0.06256324 0.12194778 0.09427136
0.059932455 0.072077036 -0.049847655 0.09984152 0.0254699 -0.13057737 -0.026496515 -0.037142523
0.09052463 -0.10686374 -0.072142124 -0.032359816 0.037031114 -0.10208862 0.02254486 0.06492096
0.14880641 -0.03741894 0.12858735 -0.028609075 0.13074858 0.0046421587 0.09731598 -0.12516925
0.037848786 0.034782156 0.005479008 0.12181558 -0.029231057 0.10302962 0.14857589 0.108738735
-0.111884944 -0.06812245 0.064671025 -0.1298984 0.057752535 0.10187285 0.014890879 -0.038861424
-0.12858607 0.046527356 -0.042523094 -0.06613072 -0.09799092 -0.02432029 0.0072804987 -0.029706836
-0.05441898 -0.04246334 0.005178854 0.10044117 -0.081126496 0.012408078 -0.08106702 0.102625236
0.08014995 0.122933105 -0.061540544 -0.15053193 -0.009900048 0.121702716 0.057179376 -0.067358166
-0.10573177 0.08731289 -0.04893416 0.13808839 -0.044664286 -0.11157009 0.07161187 -0.03267909
0.04160376 0.056708276 0.111580804 0.0102665275 -0.030107096 0.033179104 -0.13260134 0.12824272
0.11380552 -0.075300366 0.052604795 -0.004791513 -0.10008709 0.0017940104 0.024712875 0.08497222
0.08887155 0.04621321 -0.027301356 0.113196716 -0.004666373 -0.050838962 -0.03782139 0.045669913
-0.026662394 -0.090338685 0.03779584 0.1502112 0.121410355 0.09858368 -0.023898184 -0.02936437
0.0688384 0.035685137 0.091951 -0.11802934 -0.12840262 -0.08103676 0.076563954 0.090287074
00000000: 9eea 70bd 370d b2bd 2231 aabd 8532 dabd
00000010: 1e39 f83d a268 db3d 94e0 bc3d b0c3 e6bd
00000020: 46d6 94bd 0270 bc3d f3af 113e 72db c73d
00000030: 7cbb 97bd a2de f63d 746a 15be 9ece c73d
00000040: 70e5 6a3d 52eb cc3d 6264 e53d d08c a33c
00000050: ce00 40bd 0410 c5bd 0846 6dbd d653 0fbe
00000060: 9ce9 1d3d dff3 093e 3495 323d 4092 aebc
00000070: d0ca f6bc 2926 b3bd c09a ba3b 3c31 913d
00000080: 90e2 5d3d eeb7 c53d 8445 dbbd ae35 2bbd
00000090: 2edb af3d 1582 0f3e a883 23bd 8b17 193e
000000a0: 13ad 0f3e f75c dabd 003d 3c3a eebf e73d
000000b0: f160 15be 8025 ab3a 2c18 02be 10c2 97bc
000000c0: dd6e 033e 824d f03d d6c4 e73d 3aa8 85bd
000000d0: fc49 ba3d c09f d0bd 44bc a43d c949 01be
000000e0: cf9f 11be 1859 bcbc 78da 0abe dff3 e5bd
000000f0: d3fd 023e 3076 58bc 902a 73bc a47b 0c3d
00000100: f042 36bc 4444 463d 1a95 e93d 007f dcbc
00000110: ea49 d63d 2802 b7bc fa5a c63d dcb5 debd
00000120: 80d7 0cbb 3fad 113e 8727 033e 6868 b43c
00000130: 8dab 94bd 4030 cbbc 3067 d1bd 6671 70bd
00000140: f23b 49bd 8054 2bbc 369b 43bd 5ebc e9bd
00000150: c034 af3d a07c 08bc dff6 0a3e 76e1 16be
00000160: f3d6 0d3e 38d0 813c a0dc 8e3b 7086 48bd
00000170: 2837 843c 86f4 e2bd 4ac1 c03d dc03 0d3d
00000180: 4e29 ff3d 8085 9f3a 0053 04bc d89c 2fbd
00000190: a8ae 40bd b85c 883c 27d8 0e3e 4e79 8fbd
000001a0: e469 c43d 6857 1abe e8e5 dbbc b2da 19be
000001b0: 20b1 853d 5021 8b3c 546d 13be 44e7 c4bd
000001c0: 199c 0a3e a088 e1bc 72e5 5bbd a0c7 833d
000001d0: c50c 043e 1c7c 06be c0c9 a73d d00f 42bc
000001e0: b895 b73c e80d b1bc 6154 babd aa07 d9bd
000001f0: 02ef 02bd 6079 91bd 0c3e efbd f015 343d
00000200: 0e19 33bd 0029 f73c 36f4 03be 6b1b 163e
00000210: d86f b33c ad0f 063e a74c 94bd 0e57 1abd
00000220: 5242 19bd 3c2c 62bd 5815 0b3d e946 163e
00000230: 1c90 4dbd 2821 80bd c2bf f93d 5811 c13d
00000240: bc7b 753d 209d 933d 0e2d 4cbd b679 cc3d
00000250: 40a6 d03c 13b6 05be 380f d9bc c222 18bd
00000260: fa64 b93d 60db dabd 40bf 93bd ba8b 04bd
00000270: f0ad 173d d713 d1bd 00b0 b83c 48f5 843d
00000280: b560 183e 9a44 19bd 67ac 033e 945d eabc
00000290: f5e2 053e 401d 983b 9a4d c73d 5e2c 00be
000002a0: 5407 1b3d bc77 0e3d 4089 b33b 727a f93d
000002b0: f875 efbc 3201 d33d 4724 183e 6ab2 de3d
000002c0: ef23 e5bd c883 8bbd 3e72 843d 1604 05be
000002d0: ec8d 6c3d b6a2 d03d e0f8 733c 282d 1fbd
000002e0: 11ac 03be 7893 3e3d b22c 2ebd 8b6f 87bd
000002f0: 77af c8bd 583b c7bc 4091 ee3b c05b f3bc
00000300: 70e6 5ebd 0aee 2dbd 60b3 a93b 1ab4 cd3d
00000310: a625 a6bd 404b 4b3c 7706 a6bd 2e2d d23d
00000320: a825 a43d 5ac4 fb3d f011 7cbd 0b25 1abe
00000330: d033 22bc 463f f93d ec34 6a3d 14f3 89bd
00000340: e689 d8bd 1ad1 b23d 306f 48bd 0b67 0d3e
00000350: e6f1 36bd dc7e e4bd 3ea9 923d 82da 05bd
00000360: b468 2a3d f046 683d 7a84 e43d f034 283c
00000370: 28a3 f6bc d0e6 073d a5c8 07be 0f52 033e
00000380: de12 e93d 1437 9abd 2078 573d 2002 9dbb
00000390: 76fa ccbd 0025 eb3a a872 ca3c ea05 ae3d
000003a0: 4a02 b63d 104a 3d3d 18a7 dfbc aed3 e73d
000003b0: 60e8 98bb 843c 50bd 9aea 1abd 6010 3b3d
000003c0: 186b dabc 7d03 b9bd d0cf 1a3d f7d0 193e
000003d0: fea5 f83d 3ee6 c93d 20c6 c3bc 8c8d f0bc
000003e0: 26fb 8c3d 942a 123d ce50 bc3d 5eb9 f1bd
000003f0: fa7b 03be 9af6 a5bd 90cd 9c3d 6ee8 b83d

conv2.root f4 [128, 128]
-0.0033567108 0.07945425 -0.05520767 -0.10358515 0.110889174 0.03449733 0.045509614 -0.15355495
-0.20863271 -0.11769939 0.064189866 -0.095977455 0.034892175 0.027291056 -0.16466187 -0.0544812
0.13990559 -0.04890854 0.06608942 0.07699167 -0.08708383 0.052950386 0.032776758 -0.05941937
0.086376436 -0.011487289 -0.10687962 -0.14710832 -0.07564295 -0.06429208 -0.11571527 0.08673614
0.04148647 -0.17086782 0.07203837 -0.15615006 -0.028850425 -0.028025266 -0.051547524 -0.005131243
-0.19386071 -0.22038752 -0.1417609 0.030302703 -0.011979747 0.029025437 -0.20081401 -0.11430931
0.071454406 -0.012127792 -0.07263109 0.046617303 -0.06833082 0.107806236 0.08574076 0.14497891
-0.26496676 0.09076403 -0.009658227 -0.038487766 -0.22753938 -0.08516776 -0.14331585 -0.13099696
0.08810406 -0.10157701 0.14111501 -0.037858605 0.030734988 -0.013555303 -0.017640216 -0.15779674
-0.24486767 -0.087180145 -0.09338461 -0.16257846 0.15000425 0.08722286 -0.18504144 -0.007702088
0.012907976 0.15498954 -0.07224461 0.11323627 -0.19031902 -0.086302646 0.1658537 -0.2862089
-0.0052359537 -0.040392287 -0.09147823 -0.15482797 -0.07125258 -0.0100351805 0.009107687 0.08545409
-0.06463891 -0.20678435 -0.05185414 -0.12412022 0.023978302 -0.009346639 -0.08935803 0.030398475
-0.22814761 -0.26804847 0.08339992 0.0070157326 -0.2068407 0.0821667 -0.011683591 0.053798173
0.03733913 -0.023214072 0.076564066 -0.12774453 0.021778597 0.1610562 0.0055573597 0.046140105
-0.035427473 -0.06671594 -0.050461177 0.18040462 0.012387247 -0.09729095 0.06368507 0.010207988
0.05985505 0.0073718084 0.042155635 0.117034025 0.19987407 -0.20796809 -0.1682473 -0.031033598
-0.086494856 -0.006624485 0.067092285 -0.077765025 -0.09854791 -0.08535077 -0.22597183 -0.16286212
-0.13347703 -0.17912881 0.1540608 -0.06834937 -0.04654228 -0.06644625 -0.20677522 -0.057267394
0.0012855079 -0.01538439 -0.0616019 0.023796665 -0.0867849 -0.03388365 -0.14881483 0.005595331
0.023527209 -0.105515815 0.14418149 -0.0746423 -0.04991469 -0.064211756 -0.009363872 -0.048343405
-0.011513321 -0.17157476 0.05539687 0.031192616 -0.23847736 0.0026248558 0.0099595515 0.19470668
-0.12419634 0.083414815 -0.13783748 -0.05860954 0.050727025 0.18975917 0.20406745 -0.09849453
-0.05797587 -0.1576551 0.14557245 -0.09351168 0.17780778 0.025497532 -0.016602257 0.07496225
-0.042936806 -0.01472646 -0.115715705 0.08619288 0.036972467 -0.17817158 -0.024087895 -0.077878214
0.120766535 -0.03992695 -0.0381886 0.1400282 -0.20962559 0.056503683 -0.020975376 0.16116145
0.057950407 -0.031567138 -0.027965764 -0.104755044 -0.069284864 -0.008301406 0.14729184 -0.21053138
-0.005796695 0.07945204 -0.015223332 0.04881114 -0.16550721 -0.1804046 0.116183825 -0.045350783
-0.16252686 0.03549937 0.04101655 0.062301923 -0.11696956 -0.18525626 -0.008592326 -0.037707537
0.013347301 0.020567171 0.020732362 -0.34408996 -0.102066495 -0.0952843 0.10227525 0.032412387
-0.012473512 0.071657225 -0.18295191 -0.017459469 0.0873952 -0.17252904 -0.066326424 -0.045799285
0.006272011 -0.061187863 0.03409524 -0.24653418 0.08999085 0.17636678 -0.19453472 -0.21494788
00000000: 43fc 5bbb e9b8 a23d 7021 62bd 7324 d4bd
00000010: dd19 e33d 134d 0d3d 4a68 3a3d 823d 1dbe
00000020: d0a3 55be 610c f1bd fa75 833d d48f c4bd
00000030: 19eb 0e3d 7e91 df3c 1f9d 28be ae27 5fbd
00000040: 6943 0f3e 5254 48bd e459 873d cfad 9d3d
00000050: 0259 b2bd 81e2 583d ec40 063d ba61 73bd
00000060: 21e6 b03d 2f35 3cbc b4e3 dabd 90a3 16be
00000070: b1ea 9abd 91ab 83bd 21fc ecbd b8a2 b13d
00000080: b7ed 293d f9f7 2ebe da88 933d cde5 1fbe
00000090: ba57 ecbc 3e95 e5bc 7f23 53bd fc23 a8bb
000000a0: 6c83 46be 44ad 61be c529 11be 603d f83c
000000b0: b346 44bc c1c6 ed3c 30a2 4dbe 001b eabd
000000c0: b056 923d a6b3 46bc 9cbf 94bd c9f1 3e3d
000000d0: 07f1 8bbd 84c9 dc3d da98 af3d 5a75 143e
000000e0: b9a9 87be 7ee2 b93d 8a3d 1ebc 59a5 1dbd
000000f0: 1500 69be 6f6c aebd 64c1 12be 1124 06be
00000100: e76f b43d 9b07 d0bd 7480 103e a011 1bbd
00000110: f1c7 fb3c 1017 5ebc 3782 90bc 7895 21be
00000120: 97be 7abe 818b b2bd 6e40 bfbd f87a 26be
00000130: b79a 193e e6a1 b23d 817b 3dbe cc61 fcbb
00000140: fa7b 533c 94b5 1e3e fbf4 93bd 6be8 e73d
00000150: fde2 42be 71bf b0bd 8dd5 293e f989 92be
00000160: 5d92 abbb 6272 25bd f058 bbbd 398b 1ebe
00000170: dfec 91bd 996a 24bc 6838 153c 8e02 af3d
00000180: 6861 84bd 47bf 53be 0265 54bd be32 febd
00000190: 256e c43c a522 19bc 5801 b7bd 3906 f93c
000001a0: 879f 69be a63d 89be 94cd aa3d 3be4 e53b
000001b0: 0cce 53be 0447 a83d 886c 3fbc 795b 5c3d
000001c0: eaf0 183d 702b bebc 9fcd 9c3d 76cf 02be
000001d0: 0769 b23c ebeb 243e 831a b63b 68fd 3c3d
000001e0: 661c 11bd 5ea2 88bd 61b0 4ebd fdbb 383e
000001f0: e1f3 4a3c 7a40 c7bd 516d 823d 683f 273c
00000200: 922a 753d 368f f13b 63ab 2c3d 89af ef3d
00000210: caab 4c3e 96f5 54be 0549 2cbe 2c3a febc
00000220: 3724 b1bd 3512 d9bb ae67 893d 4543 9fbd
00000230: 7dd3 c9bd 62cc aebd 2965 67be 54c5 26be
00000240: 34ae 08be 8b6d 37be 1dc2 1d3e c1fa 8bbd
00000250: 1ea3 3ebd f914 88bd e2bc 53be 3791 6abd
00000260: 7d7e a83a cf0e 7cbc 4652 7cbd 39f1 c23c
00000270: 48bc b1bd 95c9 0abd ea62 18be 0a59 b73b
00000280: 22bc c03c ad18 d8bd 50a4 133e 10de 98bd
00000290: 5973 4cbd 7481 83bd ed6a 19bc bc03 46bd
000002a0: 5ea2 3cbc 4bb1 2fbe d4e7 623d a887 ff3c
000002b0: 6933 74be c605 2c3b 632d 233c 3061 473e
000002c0: a75a febd 63d5 aa3d 4525 0dbe 8f10 70bd
000002d0: 24c7 4f3d 3a50 423e 0ff7 503e 80b7 c9bd
000002e0: 1b78 6dbd 5770 21be f210 153e 0d83 bfbd
000002f0: 3e13 363e 33e0 d03c 7501 88bc cf85 993d
00000300: 81de 2fbd 4047 71bc 5bfc ecbd e585 b03d
00000310: 7170 173d 9c72 36be fa53 c5bc 9d7e 9fbd
00000320: 7254 f73d 718a 23bd a66b 1cbd 8d63 0f3e
00000330: 17a8 56be 6870 673d 8dd4 abbc 8207 253e
00000340: 685d 6d3d 8b4c 01bd 7518 e5bc d089 d6bd
00000350: 39e5 8dbd 9f02 08bc acd3 163e 8a95 57be
00000360: 34f2 bdbb c0b7 a23d 486b 79bc 31ee 473d
00000370: b97a 29be fcbb 38be c9f1 ed3d bec1 39bd
00000380: 716d 26be ca67 113d f800 283d 4d30 7f3d
00000390: bd8d efbd d1b3 3dbe d4c6 0cbc 3873 1abd
000003a0: a3ae 5a3c 7c7c a83c ead6 a93c 8f2c b0be
000003b0: 3d08 d1bd 6a24 c3bd b075 d13d dac2 043d
000003c0: b45d 4cbc 06c1 923d bf57 3bbe 2907 8fbc
000003d0: 41fc b23d 74ab 30be 26d6 87bd 0898 3bbd
000003e0: 7185 cd3b 20a0 7abd 73a7 0b3d 7573 7cbe
000003f0: 1f4d b83d 7e99 343e 1c34 47be 4c1b 5cbe

conv2.bias f4 [128]
0.10069736 -0.04875911 -0.058732558 -0.042065542 -0.060703438 -0.07130438 -0.06579673 -0.05468684
-0.051073972 -0.042300727 -0.057843514 -0.07487213 -0.102043204 -0.075462356 0.06305287 -0.044565618
0.15436248 0.19087793 -0.0697286 -0.047410056 -0.048499487 0.16623777 0.05596534 -0.054886464
-0.096503295 -0.060409043 0.0049403086 -0.03806287 0.10986136 0.18411934 -0.024338147 0.07313811
-0.053400423 -0.054554146 -0.049155 0.14302927 -0.05568973 0.045972373 -0.07985669 -0.034831524
0.09441396 -0.069288395 -0.10305751 -0.013241768 -0.10443997 -0.06279658 -0.06838984 -0.03499836
-0.038387205 -0.16538899 -0.066128835 -0.06645792 -0.056874957 -0.06573519 -0.12741725 -0.08584342
0.18899532 -0.05907626 -0.0670596 -0.080799736 -0.04519521 -0.06507391 -0.056450356 -0.077916265
-0.11410699 -0.069278784 -0.01022572 0.00071847753 -0.06765572 -0.071226485 -0.094590575 -0.06928106
0.08784432 -0.038837183 -0.06912506 -0.028661648 -0.123266995 -0.07848276 -0.000116019335 -0.0538045
-0.043370593 -0.07157094 -0.057243355 0.0009511302 0.098157525 -0.113310635 -0.08774928 0.22216454
-0.0060106446 0.04090451 -0.053412676 0.21829833 -0.025315572 -0.025329556 -0.045617737 -0.06261306
0.058908857 0.12111529 -0.07751884 0.22138019 -0.061598442 -0.04784072 -0.044384006 0.06180832
0.20092796 0.17727181 -0.06558655 0.04458611 0.018936023 -0.05428333 -0.08516669 -0.042096887
-0.07868802 -0.043696556 -0.059893887 -0.07795783 -0.14115332 -0.048516784 -0.089349195 -0.09288472
-0.053939685 0.22904465 -0.03073105 -0.0648151 -0.047111657 0.13630228 -0.073586665 -0.06904152
00000000: 6b3a ce3d a2b7 47bd 8d91 70bd eb4c 2cbd
00000010: 2ba4 78bd 0808 92bd 70c0 86bd 4fff 5fbd
00000020: f132 51bd 8743 2dbd 52ed 6cbd 8f56 99bd
00000030: 07fc d0bd 028c 9abd dd21 813d 708a 36bd
00000040: 3311 1e3e 8175 433e decd 8ebd 0c31 42bd
00000050: 66a7 46bd 3c3a 2a3e ea3b 653d a1d0 60bd
00000060: 85a3 c5bd 796f 77bd 50e2 a13b d0e7 1bbd
00000070: fefe e03d c889 3c3e cb60 c7bc 6fc9 953d
00000080: 67ba 5abd 2b74 5fbd c156 49bd 4476 123e
00000090: ea1a 64bd 874d 3c3d e78b a3bd 80ab 0ebd
000000a0: 1b5c c13d 13e7 8dbd d10f d3bd 00f4 58bc
000000b0: 9fe4 d5bd 7e9b 80bd f90f 8cbd 715a 0fbd
000000c0: e73b 1dbd bb5b 29be 8e6e 87bd 171b 88bd
000000d0: b7f5 68bd 2ca0 86bd ab79 02be adce afbd
000000e0: fd87 413e f3f9 71bd 8b56 89bd 557a a5bd
000000f0: 9d1e 39bd 7845 85bd 7d38 67bd 9092 9fbd
00000100: edb0 e9bd 09e2 8dbd c789 27bc 3658 3c3a
00000110: 158f 8abd 31df 91bd b4b8 c1bd 3ae3 8dbd
00000120: b9e7 b33d bd13 1fbd 7191 8dbd d5cb eabc
00000130: 6873 fcbd 92bb a0bd 684f f3b8 1b62 5cbd
00000140: 5da5 31bd c993 92bd 0278 6abd 4455 793a
00000150: d006 c93d 680f e8bd e5b5 b3bd 1a7f 633e
00000160: f1f4 c4bb 7d8b 273d 40c7 5abd 9989 5f3e
00000170: 9a62 cfbc ee7f cfbc aad9 3abd 473b 80bd
00000180: 6a4a 713d 4b0b f83d 33c2 9ebd 7db1 623e
00000190: a64e 7cbd a1f4 43bd 01cc 35bd b92a 7d3d
000001a0: 0fc0 4d3e be86 353e 3e52 86bd ed9f 363d
000001b0: b81f 9b3c 3258 5ebd e06b aebd c96d 2cbd
000001c0: 2f27 a1bd 29fb 32bd 4b53 75bd 5ba8 9fbd
000001d0: 7f8a 10be 89b9 46bd b6fc b6bd 583a bebd
000001e0: dcef 5cbd ae8a 6a3e afbf fbbc c7bd 84bd
000001f0: 27f8 40bd d392 0b3e 9bb4 96bd a465 8dbd

conv3.weight f4 [3, 128, 128]
-0.09495482 0.10436274 0.024153426 -0.008054763 0.043535203 -0.11069623 0.107894525 -0.06500462
0.096038654 0.03820741 0.11019148 0.020643115 0.017522305 -0.031666405 -0.062353767 -0.024328157
0.024246454 -0.067796096 -0.060270354 0.08897528 0.047568217 0.14465334 -0.006594166 0.0031415373
-0.10698995 0.08433817 -0.14611124 0.055305228 0.06812137 -0.03310857 -0.15211536 0.0881246
0.02693443 -0.007580057 0.049460307 0.089754894 -0.121237606 0.06470759 -0.050171666 0.028982252
-0.0154524 0.03156115 -0.090715386 -0.08590484 0.0068214536 0.1204492 -0.14443882 0.055367783
-0.065621816 -0.1402416 -0.15289417 -0.09881461 0.015780747 -0.0868207 0.11403124 0.051148683
-0.07637382 0.07991709 0.13353233 0.05298616 0.13582315 0.059113964 0.05401884 0.05071929
0.14752175 -0.1287044 -0.111141175 -0.14292398 0.14591415 0.045188814 0.0028514713 -0.094392836
-0.14498988 0.0995187 0.043815643 0.056519896 -0.11253518 -0.005567968 -0.147565 0.15172334
0.12847464 0.114921466 -0.10843757 -0.1252187 0.13779502 0.026543379 -0.13790518 -0.15239793
-0.10402317 -0.12627071 0.13403185 0.035974324 0.11691032 0.06893356 0.070519194 0.037231475
-0.1474867 -0.035435475 -0.012828514 -0.13831297 -0.08043267 -0.14921 -0.117743656 -0.01329343
0.051058948 0.13949548 0.041438684 0.14711593 -0.0840924 0.006615579 -0.13192 0.07992156
-0.14104538 -0.026722029 -0.15254171 0.119772896 -0.08728458 -0.060169205 0.08487785 0.12253575
0.099098995 -0.038205713 -0.0034820884 0.14948608 -0.09159365 0.032638907 -0.0919146 0.06171277
-0.13826962 0.028278053 0.038432017 -0.031574406 0.07256119 0.10203691 -0.086274035 -0.0868192
0.1009175 0.08276929 0.14526902 -0.063203216 -0.11950913 -0.008629814 -0.1468033 0.012550861
0.04415573 0.080281585 0.02405122 -0.09385185 -0.08409291 0.14357333 0.025833651 0.12462224
-0.12312141 -0.052470595 -0.059271835 -0.10997392 -0.09515725 0.023807898 -0.049515337 0.09928681
0.116637215 0.029709011 -0.047482073 0.0030386597 0.006211892 0.045899943 0.11916496 0.022313654
-0.09502208 -0.15235235 0.055220634 -0.07828692 0.14693277 0.09835781 0.061116755 0.13850765
-0.0071404576 0.03819257 -0.10751595 0.055619076 0.1394658 0.10425331 0.02126488 -0.034780405
-0.016087666 0.105599746 0.06277658 -0.15165848 -0.097719215 0.08987188 -0.10811131 -0.06593283
0.12302874 0.14411958 -0.014487281 -0.15069392 0.14860903 -0.091503695 -0.053370252 -0.07296132
-0.12686685 0.059688002 -0.14222267 0.01770015 -0.052106783 0.11902563 -0.06343968 0.0029120743
-0.13562286 0.026281476 0.002489701 0.025849834 0.14438753 0.118799075 -0.03898388 0.042217255
-0.089792766 -0.14341998 -0.042475753 -0.13507585 0.008193538 0.098497644 0.08527294 0.051753074
-0.14243115 0.03869164 0.010882363 0.13797782 0.12693514 0.13650675 -0.06599653 -0.032280542
0.0056917965 0.10535334 -0.023592547 0.12971495 0.13154738 -0.06580932 0.10146375 0.12527685
-0.051541187 -0.08782156 0.005565241 -0.007817864 0.027035221 0.05051899 -0.02048406 0.048203364
0.08487423 -0.025737494 -0.0052187294 0.15302248 -0.094214186 -0.10580082 -0.09337281 -0.06579733
00000000: ac77 c2bd 22bc d53d 68dd c53c 20f8 03bc
00000010: f851 323d b4b4 e2bd cef7 dc3d 2421 85bd
00000020: eaaf c43d 607f 1c3d 12ac e13d c01b a93c
00000030: f08a 8f3c a2b4 01bd aa66 7fbd d84b c7bc
00000040: 80a0 c63c aed8 8abd 0cde 76bd ac38 b63d
00000050: e4d6 423d 0120 143e e013 d8bb 40e2 4d3b
00000060: 8c1d dbbd 7eb9 ac3d 2f9e 15be bc87 623d
00000070: 3883 8b3d da9c 07bd 21c4 1bbe ac7a b43d
00000080: 98a5 dc3c 2062 f8bb e496 4a3d 6ad1 b73d
00000090: 6c4b f8bd 6a85 843d ce80 4dbd 306c ed3c
000000a0: 102c 7dbc 4446 013d fdc8 b9bd e0ee afbd
000000b0: 8086 df3b 12ae f63d c5e7 13be 54c9 623d
000000c0: bb64 86bd 7e9b 0fbe 4a90 1cbe 505f cabd
000000d0: a046 813c 0dcf b1bd 3689 e93d 4881 513d
000000e0: e169 9cbd 92ab a33d b3bc 083e 0408 593d
000000f0: 3915 0b3e 7c21 723d dc42 5d3d 08bf 4f3d
00000100: f10f 173e 16cb 03be fc9d e3bd aa5a 12be
00000110: 856a 153e e817 393d c0df 3a3b 0851 c1bd
00000120: 3a78 14be 76d0 cb3d 0878 333d 6881 673d
00000130: d878 e6bd 8073 b6bb 481b 17be 5d5d 1b3e
00000140: db8e 033e f25b eb3d 8414 debd 5539 00be
00000150: 231a 0d3e 8071 d93c 0437 0dbe 340e 1cbe
00000160: 1a0a d5bd 1c4d 01be a53f 093e d059 133d
00000170: ae6e ef3d 0a2d 8d3d 5e6c 903d 0880 183d
00000180: c106 17be ca24 11bd b02e 52bc eaa1 0dbe
00000190: e2b9 a4bd 82ca 18be 9623 f1bd b0cc 59bc
000001a0: 3023 513d e7d7 0e3e 9cbb 293d 8fa5 163e
000001b0: a338 acbd 80c7 d83b 0916 07be eaad a33d
000001c0: 336e 10be 28e8 dabc e533 1cbe 7e4b f53d
000001d0: 42c2 b2bd fc73 76bd 70d4 ad3d 06f4 fa3d
000001e0: 6af4 ca3d 987d 1cbd c033 64bb e112 193e
000001f0: 7495 bbbd 60b0 053d b93d bcbd 88c6 7c3d
00000200: 8d96 0dbe 60a7 e73c e46a 1d3d 2a54 01bd
00000210: f69a 943d baf8 d03d 71b0 b0bd 44ce b1bd
00000220: d6ad ce3d f282 a93d 67c1 143e b070 81bd
00000230: 34c1 f4bd 1064 0dbc 9b53 16be 20a2 4d3c
00000240: a4dc 343d ac6a a43d 1007 c53c 6635 c0bd
00000250: e738 acbd e304 133e 18a1 d33c f239 ff3d
00000260: 1427 fcbd 68eb 56bd 06c7 72bd 023a e1bd
00000270: cee1 c2bd c808 c33c 98d0 4abd e256 cb3d
00000280: 7edf ee3d 5060 f33c 907c 42bd 4024 473b
00000290: 208d cb3b 9401 3c3d c20c f43d 20cb b63c
000002a0: f09a c2bd 4102 1cbe 082f 623d e554 a0bd
000002b0: 8b75 163e d26f c93d 9055 7a3d f3d4 0d3e
000002c0: 80fa e9bb d06f 1c3d 5331 dcbd d4d0 633d
000002d0: 1fd0 0e3e c282 d53d b033 ae3c e675 0ebd
000002e0: 48ca 83bc ae44 d83d 0291 803d 5c4c 1bbe
000002f0: 0321 c8bd c00e b83d 7669 ddbd cb07 87bd
00000300: 7ef6 fb3d 1594 133e 105c 6dbc 824f 1abe
00000310: f72c 183e 4a66 bbbd c49a 5abd bf6c 95bd
00000320: 62e9 01be 687b 743d d2a2 11be e8ff 903c
00000330: ec6d 55bd b6c3 f33d aaec 81bd 80d8 3e3b
00000340: b8e0 0abe 404c d73c 402a 233b 08c3 d33c
00000350: 53da 133e ee4c f33d 90ad 1fbd 00ec 2c3d
00000360: 45e5 b7bd b0dc 12be 0efb 2dbd 5351 0abe
00000370: 303e 063c 22b9 c93d 94a3 ae3d 08fb 533d
00000380: 79d9 11be 207b 1e3d f04b 323c 0f4a 0d3e
00000390: 49fb 013e 6dc8 0b3e 3029 87bd 9a38 04bd
000003a0: 4082 ba3b 7ec3 d73d 2845 c1bc ffd3 043e
000003b0: 5bb4 063e 09c7 86bd 3acc cf3d 9348 003e
000003c0: da1c 53bd cadb b3bd a05c b63b 8016 00bc
000003d0: f878 dd3c 00ed 4e3d 30ce a7bc e470 453d
000003e0: 8ad2 ad3d 70d7 d2bc e001 abbb edb1 1c3e
000003f0: 5ef3 c0bd 1aae d8bd 3e3a bfbd c0c0 86bd

conv3.root f4 [128, 128]
0.060771447 -0.08717251 0.013447835 0.15234736 0.11156048 0.079229675 -0.2054425 -0.0885829
-0.0059298105 0.017608525 -0.06408113 -0.064909615 -0.121331654 -0.15057342 -0.15637517 -0.015049797
0.089473225 -0.18046166 0.023235276 -0.005463385 0.16231482 -0.018093478 0.0019800211 0.091390386
-0.11592764 -0.015389998 -0.1779333 -0.0046830606 0.099335805 -0.17100744 -0.08981871 0.030894628
0.16119623 -0.2043401 -0.15884875 -0.1316736 -0.10943093 -0.009116893 0.042303406 -0.036062974
-0.090902776 -0.030107979 -0.22352122 -0.17436412 0.016654791 -0.08561184 0.03564467 -0.11937065
0.13508855 -0.11892625 -0.16128919 -0.07417066 0.13661055 -0.09252153 0.111942455 -0.052574463
-0.07470927 0.028043406 -0.033664733 -0.04594662 -0.079437345 -0.11382718 -0.13464752 -0.10350352
-0.09759935 -0.024602521 -0.0008327912 -0.09709282 -0.18305297 -0.15127176 -0.054848816 -0.04504849
0.027506253 0.15600264 -0.14419141 0.027021728 -0.18575582 0.06459444 -0.051078096 -0.035781235
-0.08866489 0.08011545 0.11891386 -0.17956689 -0.15704115 -0.03221948 0.029837763 0.10207203
-0.15072285 0.04762577 0.01906374 -0.02087503 0.11367465 -0.039895233 0.006234287 0.00014517049
-0.15274012 0.05121676 -0.1397545 0.11832407 -0.011326698 -0.16882792 0.070743546 0.08620637
-0.14010426 0.04804466 0.0077489195 -0.0037073998 -0.07610476 -0.10476605 -0.09803696 0.12659968
-0.10046703 0.044898663 -0.06777399 -0.05531986 0.052365314 -0.017940052 0.15143088 -0.10074004
0.07568306 -0.12380222 0.09918699 0.052521743 -0.017324643 -0.14268073 -0.111445084 0.00067189685
0.07388221 -0.09387297 -0.14894153 0.08396537 -0.05246646 -0.06530937 0.06978124 0.37273192
0.06869465 0.09284296 -0.0010634726 -0.16784528 -0.11315383 -0.09742102 -0.016417919 0.059324764
-0.14586718 -0.09490064 -0.053530358 0.013966943 -0.11257118 -0.09102016 0.03436737 -0.13659987
0.08586787 0.09046771 -0.11700216 -0.047640238 0.013743682 0.03157522 -0.03071293 0.008202841
-0.1678288 -0.10112471 -0.045926813 -0.05981353 0.11747788 0.015681328 0.13080156 0.07568656
0.04918421 -0.21016292 -0.046547674 -0.049102098 -0.1593943 -0.01628108 0.04540685 0.09548804
-0.12295309 -0.13628829 -0.0013909979 -0.13399455 0.0121028125 -0.10918735 -0.10053736 0.00081546896
0.013335273 -0.15014468 -0.053195592 0.03993219 0.063960806 0.09680186 0.13573137 0.0964274
-0.14543745 -0.16754797 -0.16156131 -0.052585673 0.04295902 -0.0061129695 0.07794829 -0.06260567
-0.07071084 0.0008769255 0.021765413 -0.007274864 0.063123345 -0.18392374 -0.13264267 0.07157445
-0.13787083 0.111346215 -0.17068794 -0.064003065 0.06656933 -0.007179144 -0.12741105 0.11351285
-0.1520887 0.08727588 0.12897058 0.06841617 -0.15425393 -0.03670246 0.057543285 -0.0892044
-0.1410201 -0.068409815 -0.09932438 -0.11102659 -0.093828365 0.051887102 -0.1256761 0.084177315
0.04848845 0.015902378 -0.16203061 -0.15565306 -0.040899552 -0.23872855 0.024650529 -0.048978254
-0.1118512 -0.096716106 -0.05949558 -0.009841113 0.026547488 -0.14214809 -0.13407923 0.06771625
-0.12811847 0.097398885 -0.115841836 0.02535004 -0.16991875 0.10283257 -0.14122762 -0.11077495
00000000: 7beb 783d 8087 b2bd 4f54 5c3c f200 1c3e
00000010: d279 e43d 2b43 a23d 855f 52be f46a b5bd
00000020: db4e c2bb c13f 903c f83c 83bd 55ef 84bd
00000030: bb7c f8bd eb2f 1abe d020 20be 6c93 76bc
00000040: bd3d b73d f1ca 38be e857 be3c 3206 b3bb
00000050: db35 263e c638 94bc 3ec3 013b e22a bb3d
00000060: 786b edbd 5526 7cbc 2634 36be 5c74 99bb
00000070: 9270 cb3d 931c 2fbe dff2 b7bd bb16 fd3c
00000080: a010 253e 883e 51be 3fa9 22be 72d5 06be
00000090: 531d e0bd 055f 15bc 5646 2d3d c5b6 13bd
000000a0: 3c2b babd 02a5 f6bc bfe2 64be 828c 32be
000000b0: a16f 883c 4355 afbd 2500 123d 9978 f4bd
000000c0: a754 0a3e 9b8f f3bd fe28 25be c9e6 97bd
000000d0: a3e3 0b3e ee7b bdbd 1642 e53d 5258 57bd
000000e0: 2c01 99bd 49bb e53c 08e4 09bd 8632 3cbd
000000f0: 0cb0 a2bd 391e e9bd 0ae1 09be a7f9 d3bd
00000100: 2be2 c7bd 3a8b c9bc ac4f 5aba 9ad8 c6bd
00000110: 3d72 3bbe fce6 1abe 27a9 60bd c484 38bd
00000120: cb54 e13c 28bf 1f3e eaa6 13be ac5c dd3c
00000130: c636 3ebe 174a 843d 4437 51bd 588f 12bd
00000140: f095 b5bd 9213 a43d 1c89 f33d 62e0 37be
00000150: 65cf 20be 93f8 03bd 536e f43c 240b d13d
00000160: 1757 1abe 3d13 433d 8f2b 9c3c 1c02 abbc
00000170: 41ce e83d 2f69 23bd fd48 cc3b e838 1839
00000180: e867 1cbe aac8 513d ce1b 0fbe e453 f23d
00000190: 9d93 39bc 3ae1 2cbe fee1 903d f78c b03d
000001a0: 7e77 0fbe 7aca 443d a6ea fd3b d9f7 72bb
000001b0: d0dc 9bbd 958f d6bd 9ac7 c8bd 59a3 013e
000001c0: a9c1 cdbd a9e7 373d 17cd 8abd 1497 62bd
000001d0: 037d 563d 04f7 92bc b210 1b3e cb50 cebd
000001e0: b8ff 9a3d 058c fdbd 8c22 cb3d 0a21 573d
000001f0: 69ec 8dbc e61a 12be 523d e4bd 3c22 303a
00000200: 8e4f 973d 7940 c0bd 2184 18be 09f6 ab3d
00000210: 12e7 56bd ebc0 85bd 77e9 8e3d b8d6 be3e
00000220: c8af 8c3d 7324 be3d 3864 8bba a2df 2bbe
00000230: 32bd e7bd ac84 c7bd df7e 86bc 86fe 723d
00000240: 355e 15be 445b c2bd a642 5bbd 9bd5 643c
00000250: b88b e6bd c768 babd cdc4 0c3d d6e0 0bbe
00000260: 7edb af3d 2247 b93d d49e efbd 6922 43bd
00000270: 2e2d 613c 0555 013d af99 fbbc 3565 063c
00000280: 50db 2bbe 791a cfbd c11d 3cbd 08ff 74bd
00000290: 3e98 f03d 2176 803c d8f0 053e 8e01 9b3d
000002a0: 6275 493d f334 57be c6a8 3ebd 481f 49bd
000002b0: 4238 23be e65f 85bc 88fc 393d 3c8f c33d
000002c0: d4ce fbbd 288f 0bbe 2552 b6ba de35 09be
000002d0: e04a 463c 9e9d dfbd 88e6 cdbd 32c5 553a
000002e0: 307c 5a3c 87bf 19be 9fe3 59bd f08f 233d
000002f0: e2fd 823d 0e40 c63d 2afd 0a3e bb7b c53d
00000300: 8eed 14be b291 2bbe 5470 25be 1364 57bd
00000310: ccf5 2f3d 4e4f c8bb 5aa3 9f3d 6737 80bd
00000320: d8d0 90bd 79e1 653a 614d b23c fb61 eebb
00000330: d046 813d 8156 3cbe 7bd3 07be a095 923d
00000340: 032e 0dbe 7c09 e43d d2c8 2ebe 0a14 83bd
00000350: 8055 883d 063f ebbb 0b78 02be 6d79 e83d
00000360: 24bd 1bbe b2bd b23d dd10 043e c71d 8c3d
00000370: bef4 1dbe 5255 16bd 82b2 6b3d ccb0 b6bd
00000380: 9367 10be 721a 8cbd 956a cbbd e961 e3bd
00000390: 1629 c0bd 9287 543d 3cb1 00be 2865 ac3d
000003a0: d39b 463d b445 823c 5aeb 25be 8463 1fbe
000003b0: 4a86 27bd 4275 74be e8ef c93c 6c9d 48bd
000003c0: 3e12 e5bd 1813 c6bd a3b1 73bd 9f3c 21bc
000003d0: 1e7a d93c 458f 11be 114c 09be d1ae 8a3d
000003e0: 7d31 03be 1179 c73d 7c3e edbd e3aa cf3c
000003f0: 2eff 2dbe e299 d23d f99d 10be fadd e2bd

conv3.bias f4 [128]
-0.021709885 -0.078518584 -0.023837976 0.12753128 0.17401111 -0.031814247 -0.08631855 0.0039911265
-0.036506392 -0.02130615 -0.07013133 -0.0867559 -0.05636459 -0.02170995 -0.0021893005 -0.02097016
0.0034876529 -0.031291515 0.19290671 -0.034998577 0.2176525 -0.10251661 -0.0547297 -0.07115301
-0.06697749 -0.082120664 -0.09547113 -0.02779859 0.22284809 -0.090463035 -0.012464068 -0.06017855
0.17208374 -0.074449055 -0.056715306 -0.023842856 0.034259863 -0.011468062 0.051375747 -0.019067055
-0.039108094 0.3022929 -0.097168624 0.02664228 -0.07419847 -0.07658365 -0.07981986 0.16965337
0.068920344 -0.106722444 -0.094514124 -0.015844896 0.112756535 -0.02193668 0.18164374 -0.114433885
-0.041237775 0.05130087 0.006918514 -0.069852024 -0.016384546 -0.027109897 -0.009257481 0.2197629
0.26578283 -0.014377256 0.13125364 -0.032692973 0.034710668 0.275688 0.09569691 0.04578803
0.064183824 0.17177536 -0.08355258 0.016895007 -0.053833093 0.15852055 -0.07401774 0.020939562
0.13757552 0.124841526 0.24683285 -0.01797357 0.036372192 0.172461 0.07390522 0.026107818
0.14066067 0.14454791 -0.013298664 -0.017897341 0.099855535 0.023523752 -0.016228944 0.14860295
-0.008881594 0.18503095 0.17908683 -0.031264596 0.0076497467 -0.04061597 0.17938872 0.06160348
-0.09076723 -0.0052488125 0.10824898 -0.019717619 -0.12655503 -0.0052115996 0.19834398 0.05531208
-0.10650849 0.2094812 -0.040819153 0.028084926 -0.054539695 0.067582816 0.26751977 -0.112675406
-0.017793301 -0.068626635 0.1798348 -0.02162392 -0.052729174 0.10243495 0.04434192 -0.057996385
00000000: eed8 b1bc 5ace a0bd dc47 c3bc 8f97 023e
00000010: f82f 323e a84f 02bd c8c7 b0bd ffc7 823b
00000020: ba87 15bd 3c8a aebc 04a1 8fbd 14ad b1bd
00000030: 8ede 66bd 11d9 b1bc 5e7a 0fbb 9dc9 abbc
00000040: 1b91 643b 882b 00bd 5689 453e ab5a 0fbd
00000050: 4ce0 5e3e 3af4 d1bd 402c 60bd abb8 91bd
00000060: 7f2b 89bd e12e a8bd 5e86 c3bd deb9 e3bc
00000070: 4a32 643e af44 b9bd 1736 4cbc c97d 76bd
00000080: b836 303e bf78 98bd 4f4e 68bd 1852 c3bc
00000090: 1254 0c3d 8ae4 3bbc 606f 523d 8332 9cbc
000000a0: cf2f 20bd 23c6 9a3e 5800 c7bd e940 da3c
000000b0: 5ef5 97bd e4d7 9cbd 9878 a3bd 9db9 2d3e
000000c0: 1c26 8d3d 4c91 dabd 9f90 c1bd 28cd 81bc
000000d0: e6ec e63d 8db4 b3bc d100 3a3e 505c eabd
000000e0: f1e8 28bd dc20 523d b4b4 e23b 940e 8fbd
000000f0: e238 86bc 9315 debc b1ac 17bc 8709 613e
00000100: b014 883e 958e 6bbc 5b67 063e 11e9 05bd
00000110: c62c 0e3d fa26 8d3e befc c33d 3b8c 3b3d
00000120: cf72 833d e1e5 2f3e 9d1d abbd 6667 8a3c
00000130: 1780 5cbd 3653 223e 9d96 97bd 7289 ab3c
00000140: 99e0 0c3e eaac ff3d c0c1 7c3e 4f3d 93bc
00000150: 02fb 143d 9e99 303e 9f5b 973d 10e0 d53c
00000160: 5a09 103e 5e04 143e a4e2 59bc 729d 92bc
00000170: 0f81 cc3d e2b4 c03c 90f2 84bc 5f2b 183e
00000180: 1b84 11bc c178 3d3e 8a62 373e 4e0f 00bd
00000190: baaa fa3b ee5c 26bd adb1 373e ee53 7c3d
000001a0: 2be4 b9bd 3bfe abbb a4b1 dd3d d886 a1bc
000001b0: a497 01be 11c6 aabb af1a 4b3e eb8e 623d
000001c0: 2021 dabd 3d82 563e fc31 27bd 5c12 e63c
000001d0: 0465 5fbd dc68 8a3d 5af8 883e 5dc2 e6bd
000001e0: 42c3 91bc 1f8c 8cbd 9d26 383e a624 b1bc
000001f0: 8cfa 57bd 6ac9 d13d e09f 353d 9e8d 6dbd
